<net name="ResNet-50" version="2" batch="1">
    <layers>
        <layer name="input" type="Input" precision="FP32" id="0">
            <output>
                <port id="0">
                    <dim>1</dim>
                    <dim>3</dim>
                    <dim>224</dim>
                    <dim>224</dim>
                </port>
            </output>
        </layer>
        <layer name="conv1" type="Convolution" precision="FP32" id="1">
            <convolution_data stride-x="2" stride-y="2" pad-x="3" pad-y="3" kernel-x="7" kernel-y="7" output="64" group="1"/>
            <input>
                <port id="1">
                    <dim>1</dim>
                    <dim>3</dim>
                    <dim>224</dim>
                    <dim>224</dim>
                </port>
            </input>
            <output>
                <port id="2">
                    <dim>1</dim>
                    <dim>64</dim>
                    <dim>112</dim>
                    <dim>112</dim>
                </port>
            </output>
            <weights offset="0" size="37632"/>
            <biases offset="37632" size="256"/>
        </layer>
        <layer name="conv1_relu" type="ReLU" precision="FP32" id="4">
            <input>
                <port id="7">
                    <dim>1</dim>
                    <dim>64</dim>
                    <dim>112</dim>
                    <dim>112</dim>
                </port>
            </input>
            <output>
                <port id="8">
                    <dim>1</dim>
                    <dim>64</dim>
                    <dim>112</dim>
                    <dim>112</dim>
                </port>
            </output>
        </layer>
        <layer name="pool1" type="Pooling" precision="FP32" id="5">
            <pooling_data kernel-x="3" kernel-y="3" pad-x="0" pad-y="0" stride-x="2" stride-y="2" rounding-type="ceil" pool-method="max"/>
            <input>
                <port id="9">
                    <dim>1</dim>
                    <dim>64</dim>
                    <dim>112</dim>
                    <dim>112</dim>
                </port>
            </input>
            <output>
                <port id="10">
                    <dim>1</dim>
                    <dim>64</dim>
                    <dim>56</dim>
                    <dim>56</dim>
                </port>
            </output>
        </layer>
        <layer name="res2a_branch2a" type="Convolution" precision="FP32" id="9">
            <convolution_data stride-x="1" stride-y="1" pad-x="0" pad-y="0" kernel-x="1" kernel-y="1" output="64" group="1"/>
            <input>
                <port id="17">
                    <dim>1</dim>
                    <dim>64</dim>
                    <dim>56</dim>
                    <dim>56</dim>
                </port>
            </input>
            <output>
                <port id="18">
                    <dim>1</dim>
                    <dim>64</dim>
                    <dim>56</dim>
                    <dim>56</dim>
                </port>
            </output>
            <weights offset="37888" size="16384"/>
            <biases offset="54272" size="256"/>
        </layer>
        <layer name="res2a_branch2a_relu" type="ReLU" precision="FP32" id="12">
            <input>
                <port id="23">
                    <dim>1</dim>
                    <dim>64</dim>
                    <dim>56</dim>
                    <dim>56</dim>
                </port>
            </input>
            <output>
                <port id="24">
                    <dim>1</dim>
                    <dim>64</dim>
                    <dim>56</dim>
                    <dim>56</dim>
                </port>
            </output>
        </layer>
        <layer name="res2a_branch2b" type="Convolution" precision="FP32" id="13">
            <convolution_data stride-x="1" stride-y="1" pad-x="1" pad-y="1" kernel-x="3" kernel-y="3" output="64" group="1"/>
            <input>
                <port id="25">
                    <dim>1</dim>
                    <dim>64</dim>
                    <dim>56</dim>
                    <dim>56</dim>
                </port>
            </input>
            <output>
                <port id="26">
                    <dim>1</dim>
                    <dim>64</dim>
                    <dim>56</dim>
                    <dim>56</dim>
                </port>
            </output>
            <weights offset="54528" size="147456"/>
            <biases offset="201984" size="256"/>
        </layer>
        <layer name="res2a_branch2b_relu" type="ReLU" precision="FP32" id="16">
            <input>
                <port id="31">
                    <dim>1</dim>
                    <dim>64</dim>
                    <dim>56</dim>
                    <dim>56</dim>
                </port>
            </input>
            <output>
                <port id="32">
                    <dim>1</dim>
                    <dim>64</dim>
                    <dim>56</dim>
                    <dim>56</dim>
                </port>
            </output>
        </layer>
        <layer name="res2a_branch2c" type="Convolution" precision="FP32" id="17">
            <convolution_data stride-x="1" stride-y="1" pad-x="0" pad-y="0" kernel-x="1" kernel-y="1" output="256" group="1"/>
            <input>
                <port id="33">
                    <dim>1</dim>
                    <dim>64</dim>
                    <dim>56</dim>
                    <dim>56</dim>
                </port>
            </input>
            <output>
                <port id="34">
                    <dim>1</dim>
                    <dim>256</dim>
                    <dim>56</dim>
                    <dim>56</dim>
                </port>
            </output>
            <weights offset="202240" size="65536"/>
            <biases offset="267776" size="1024"/>
        </layer>
        <layer name="res2a_branch1" type="Convolution" precision="FP32" id="6">
            <convolution_data stride-x="1" stride-y="1" pad-x="0" pad-y="0" kernel-x="1" kernel-y="1" output="256" group="1"/>
            <input>
                <port id="11">
                    <dim>1</dim>
                    <dim>64</dim>
                    <dim>56</dim>
                    <dim>56</dim>
                </port>
            </input>
            <output>
                <port id="12">
                    <dim>1</dim>
                    <dim>256</dim>
                    <dim>56</dim>
                    <dim>56</dim>
                </port>
            </output>
            <weights offset="268800" size="65536"/>
            <biases offset="334336" size="1024"/>
        </layer>
        <layer name="res2a" type="Eltwise" precision="FP32" id="20">
            <elementwise_data operation="sum"/>
            <input>
                <port id="39">
                    <dim>1</dim>
                    <dim>256</dim>
                    <dim>56</dim>
                    <dim>56</dim>
                </port>
                <port id="40">
                    <dim>1</dim>
                    <dim>256</dim>
                    <dim>56</dim>
                    <dim>56</dim>
                </port>
            </input>
            <output>
                <port id="41">
                    <dim>1</dim>
                    <dim>256</dim>
                    <dim>56</dim>
                    <dim>56</dim>
                </port>
            </output>
        </layer>
        <layer name="res2a_relu" type="ReLU" precision="FP32" id="21">
            <input>
                <port id="42">
                    <dim>1</dim>
                    <dim>256</dim>
                    <dim>56</dim>
                    <dim>56</dim>
                </port>
            </input>
            <output>
                <port id="43">
                    <dim>1</dim>
                    <dim>256</dim>
                    <dim>56</dim>
                    <dim>56</dim>
                </port>
            </output>
        </layer>
        <layer name="res2b_branch2a" type="Convolution" precision="FP32" id="22">
            <convolution_data stride-x="1" stride-y="1" pad-x="0" pad-y="0" kernel-x="1" kernel-y="1" output="64" group="1"/>
            <input>
                <port id="44">
                    <dim>1</dim>
                    <dim>256</dim>
                    <dim>56</dim>
                    <dim>56</dim>
                </port>
            </input>
            <output>
                <port id="45">
                    <dim>1</dim>
                    <dim>64</dim>
                    <dim>56</dim>
                    <dim>56</dim>
                </port>
            </output>
            <weights offset="335360" size="65536"/>
            <biases offset="400896" size="256"/>
        </layer>
        <layer name="res2b_branch2a_relu" type="ReLU" precision="FP32" id="25">
            <input>
                <port id="50">
                    <dim>1</dim>
                    <dim>64</dim>
                    <dim>56</dim>
                    <dim>56</dim>
                </port>
            </input>
            <output>
                <port id="51">
                    <dim>1</dim>
                    <dim>64</dim>
                    <dim>56</dim>
                    <dim>56</dim>
                </port>
            </output>
        </layer>
        <layer name="res2b_branch2b" type="Convolution" precision="FP32" id="26">
            <convolution_data stride-x="1" stride-y="1" pad-x="1" pad-y="1" kernel-x="3" kernel-y="3" output="64" group="1"/>
            <input>
                <port id="52">
                    <dim>1</dim>
                    <dim>64</dim>
                    <dim>56</dim>
                    <dim>56</dim>
                </port>
            </input>
            <output>
                <port id="53">
                    <dim>1</dim>
                    <dim>64</dim>
                    <dim>56</dim>
                    <dim>56</dim>
                </port>
            </output>
            <weights offset="401152" size="147456"/>
            <biases offset="548608" size="256"/>
        </layer>
        <layer name="res2b_branch2b_relu" type="ReLU" precision="FP32" id="29">
            <input>
                <port id="58">
                    <dim>1</dim>
                    <dim>64</dim>
                    <dim>56</dim>
                    <dim>56</dim>
                </port>
            </input>
            <output>
                <port id="59">
                    <dim>1</dim>
                    <dim>64</dim>
                    <dim>56</dim>
                    <dim>56</dim>
                </port>
            </output>
        </layer>
        <layer name="res2b_branch2c" type="Convolution" precision="FP32" id="30">
            <convolution_data stride-x="1" stride-y="1" pad-x="0" pad-y="0" kernel-x="1" kernel-y="1" output="256" group="1"/>
            <input>
                <port id="60">
                    <dim>1</dim>
                    <dim>64</dim>
                    <dim>56</dim>
                    <dim>56</dim>
                </port>
            </input>
            <output>
                <port id="61">
                    <dim>1</dim>
                    <dim>256</dim>
                    <dim>56</dim>
                    <dim>56</dim>
                </port>
            </output>
            <weights offset="548864" size="65536"/>
            <biases offset="614400" size="1024"/>
        </layer>
        <layer name="res2b" type="Eltwise" precision="FP32" id="33">
            <elementwise_data operation="sum"/>
            <input>
                <port id="66">
                    <dim>1</dim>
                    <dim>256</dim>
                    <dim>56</dim>
                    <dim>56</dim>
                </port>
                <port id="67">
                    <dim>1</dim>
                    <dim>256</dim>
                    <dim>56</dim>
                    <dim>56</dim>
                </port>
            </input>
            <output>
                <port id="68">
                    <dim>1</dim>
                    <dim>256</dim>
                    <dim>56</dim>
                    <dim>56</dim>
                </port>
            </output>
        </layer>
        <layer name="res2b_relu" type="ReLU" precision="FP32" id="34">
            <input>
                <port id="69">
                    <dim>1</dim>
                    <dim>256</dim>
                    <dim>56</dim>
                    <dim>56</dim>
                </port>
            </input>
            <output>
                <port id="70">
                    <dim>1</dim>
                    <dim>256</dim>
                    <dim>56</dim>
                    <dim>56</dim>
                </port>
            </output>
        </layer>
        <layer name="res2c_branch2a" type="Convolution" precision="FP32" id="35">
            <convolution_data stride-x="1" stride-y="1" pad-x="0" pad-y="0" kernel-x="1" kernel-y="1" output="64" group="1"/>
            <input>
                <port id="71">
                    <dim>1</dim>
                    <dim>256</dim>
                    <dim>56</dim>
                    <dim>56</dim>
                </port>
            </input>
            <output>
                <port id="72">
                    <dim>1</dim>
                    <dim>64</dim>
                    <dim>56</dim>
                    <dim>56</dim>
                </port>
            </output>
            <weights offset="615424" size="65536"/>
            <biases offset="680960" size="256"/>
        </layer>
        <layer name="res2c_branch2a_relu" type="ReLU" precision="FP32" id="38">
            <input>
                <port id="77">
                    <dim>1</dim>
                    <dim>64</dim>
                    <dim>56</dim>
                    <dim>56</dim>
                </port>
            </input>
            <output>
                <port id="78">
                    <dim>1</dim>
                    <dim>64</dim>
                    <dim>56</dim>
                    <dim>56</dim>
                </port>
            </output>
        </layer>
        <layer name="res2c_branch2b" type="Convolution" precision="FP32" id="39">
            <convolution_data stride-x="1" stride-y="1" pad-x="1" pad-y="1" kernel-x="3" kernel-y="3" output="64" group="1"/>
            <input>
                <port id="79">
                    <dim>1</dim>
                    <dim>64</dim>
                    <dim>56</dim>
                    <dim>56</dim>
                </port>
            </input>
            <output>
                <port id="80">
                    <dim>1</dim>
                    <dim>64</dim>
                    <dim>56</dim>
                    <dim>56</dim>
                </port>
            </output>
            <weights offset="681216" size="147456"/>
            <biases offset="828672" size="256"/>
        </layer>
        <layer name="res2c_branch2b_relu" type="ReLU" precision="FP32" id="42">
            <input>
                <port id="85">
                    <dim>1</dim>
                    <dim>64</dim>
                    <dim>56</dim>
                    <dim>56</dim>
                </port>
            </input>
            <output>
                <port id="86">
                    <dim>1</dim>
                    <dim>64</dim>
                    <dim>56</dim>
                    <dim>56</dim>
                </port>
            </output>
        </layer>
        <layer name="res2c_branch2c" type="Convolution" precision="FP32" id="43">
            <convolution_data stride-x="1" stride-y="1" pad-x="0" pad-y="0" kernel-x="1" kernel-y="1" output="256" group="1"/>
            <input>
                <port id="87">
                    <dim>1</dim>
                    <dim>64</dim>
                    <dim>56</dim>
                    <dim>56</dim>
                </port>
            </input>
            <output>
                <port id="88">
                    <dim>1</dim>
                    <dim>256</dim>
                    <dim>56</dim>
                    <dim>56</dim>
                </port>
            </output>
            <weights offset="828928" size="65536"/>
            <biases offset="894464" size="1024"/>
        </layer>
        <layer name="res2c" type="Eltwise" precision="FP32" id="46">
            <elementwise_data operation="sum"/>
            <input>
                <port id="93">
                    <dim>1</dim>
                    <dim>256</dim>
                    <dim>56</dim>
                    <dim>56</dim>
                </port>
                <port id="94">
                    <dim>1</dim>
                    <dim>256</dim>
                    <dim>56</dim>
                    <dim>56</dim>
                </port>
            </input>
            <output>
                <port id="95">
                    <dim>1</dim>
                    <dim>256</dim>
                    <dim>56</dim>
                    <dim>56</dim>
                </port>
            </output>
        </layer>
        <layer name="res2c_relu" type="ReLU" precision="FP32" id="47">
            <input>
                <port id="96">
                    <dim>1</dim>
                    <dim>256</dim>
                    <dim>56</dim>
                    <dim>56</dim>
                </port>
            </input>
            <output>
                <port id="97">
                    <dim>1</dim>
                    <dim>256</dim>
                    <dim>56</dim>
                    <dim>56</dim>
                </port>
            </output>
        </layer>
        <layer name="res3a_branch2a" type="Convolution" precision="FP32" id="51">
            <convolution_data stride-x="2" stride-y="2" pad-x="0" pad-y="0" kernel-x="1" kernel-y="1" output="128" group="1"/>
            <input>
                <port id="104">
                    <dim>1</dim>
                    <dim>256</dim>
                    <dim>56</dim>
                    <dim>56</dim>
                </port>
            </input>
            <output>
                <port id="105">
                    <dim>1</dim>
                    <dim>128</dim>
                    <dim>28</dim>
                    <dim>28</dim>
                </port>
            </output>
            <weights offset="895488" size="131072"/>
            <biases offset="1026560" size="512"/>
        </layer>
        <layer name="res3a_branch2a_relu" type="ReLU" precision="FP32" id="54">
            <input>
                <port id="110">
                    <dim>1</dim>
                    <dim>128</dim>
                    <dim>28</dim>
                    <dim>28</dim>
                </port>
            </input>
            <output>
                <port id="111">
                    <dim>1</dim>
                    <dim>128</dim>
                    <dim>28</dim>
                    <dim>28</dim>
                </port>
            </output>
        </layer>
        <layer name="res3a_branch2b" type="Convolution" precision="FP32" id="55">
            <convolution_data stride-x="1" stride-y="1" pad-x="1" pad-y="1" kernel-x="3" kernel-y="3" output="128" group="1"/>
            <input>
                <port id="112">
                    <dim>1</dim>
                    <dim>128</dim>
                    <dim>28</dim>
                    <dim>28</dim>
                </port>
            </input>
            <output>
                <port id="113">
                    <dim>1</dim>
                    <dim>128</dim>
                    <dim>28</dim>
                    <dim>28</dim>
                </port>
            </output>
            <weights offset="1027072" size="589824"/>
            <biases offset="1616896" size="512"/>
        </layer>
        <layer name="res3a_branch2b_relu" type="ReLU" precision="FP32" id="58">
            <input>
                <port id="118">
                    <dim>1</dim>
                    <dim>128</dim>
                    <dim>28</dim>
                    <dim>28</dim>
                </port>
            </input>
            <output>
                <port id="119">
                    <dim>1</dim>
                    <dim>128</dim>
                    <dim>28</dim>
                    <dim>28</dim>
                </port>
            </output>
        </layer>
        <layer name="res3a_branch2c" type="Convolution" precision="FP32" id="59">
            <convolution_data stride-x="1" stride-y="1" pad-x="0" pad-y="0" kernel-x="1" kernel-y="1" output="512" group="1"/>
            <input>
                <port id="120">
                    <dim>1</dim>
                    <dim>128</dim>
                    <dim>28</dim>
                    <dim>28</dim>
                </port>
            </input>
            <output>
                <port id="121">
                    <dim>1</dim>
                    <dim>512</dim>
                    <dim>28</dim>
                    <dim>28</dim>
                </port>
            </output>
            <weights offset="1617408" size="262144"/>
            <biases offset="1879552" size="2048"/>
        </layer>
        <layer name="res3a_branch1" type="Convolution" precision="FP32" id="48">
            <convolution_data stride-x="2" stride-y="2" pad-x="0" pad-y="0" kernel-x="1" kernel-y="1" output="512" group="1"/>
            <input>
                <port id="98">
                    <dim>1</dim>
                    <dim>256</dim>
                    <dim>56</dim>
                    <dim>56</dim>
                </port>
            </input>
            <output>
                <port id="99">
                    <dim>1</dim>
                    <dim>512</dim>
                    <dim>28</dim>
                    <dim>28</dim>
                </port>
            </output>
            <weights offset="1881600" size="524288"/>
            <biases offset="2405888" size="2048"/>
        </layer>
        <layer name="res3a" type="Eltwise" precision="FP32" id="62">
            <elementwise_data operation="sum"/>
            <input>
                <port id="126">
                    <dim>1</dim>
                    <dim>512</dim>
                    <dim>28</dim>
                    <dim>28</dim>
                </port>
                <port id="127">
                    <dim>1</dim>
                    <dim>512</dim>
                    <dim>28</dim>
                    <dim>28</dim>
                </port>
            </input>
            <output>
                <port id="128">
                    <dim>1</dim>
                    <dim>512</dim>
                    <dim>28</dim>
                    <dim>28</dim>
                </port>
            </output>
        </layer>
        <layer name="res3a_relu" type="ReLU" precision="FP32" id="63">
            <input>
                <port id="129">
                    <dim>1</dim>
                    <dim>512</dim>
                    <dim>28</dim>
                    <dim>28</dim>
                </port>
            </input>
            <output>
                <port id="130">
                    <dim>1</dim>
                    <dim>512</dim>
                    <dim>28</dim>
                    <dim>28</dim>
                </port>
            </output>
        </layer>
        <layer name="res3b_branch2a" type="Convolution" precision="FP32" id="64">
            <convolution_data stride-x="1" stride-y="1" pad-x="0" pad-y="0" kernel-x="1" kernel-y="1" output="128" group="1"/>
            <input>
                <port id="131">
                    <dim>1</dim>
                    <dim>512</dim>
                    <dim>28</dim>
                    <dim>28</dim>
                </port>
            </input>
            <output>
                <port id="132">
                    <dim>1</dim>
                    <dim>128</dim>
                    <dim>28</dim>
                    <dim>28</dim>
                </port>
            </output>
            <weights offset="2407936" size="262144"/>
            <biases offset="2670080" size="512"/>
        </layer>
        <layer name="res3b_branch2a_relu" type="ReLU" precision="FP32" id="67">
            <input>
                <port id="137">
                    <dim>1</dim>
                    <dim>128</dim>
                    <dim>28</dim>
                    <dim>28</dim>
                </port>
            </input>
            <output>
                <port id="138">
                    <dim>1</dim>
                    <dim>128</dim>
                    <dim>28</dim>
                    <dim>28</dim>
                </port>
            </output>
        </layer>
        <layer name="res3b_branch2b" type="Convolution" precision="FP32" id="68">
            <convolution_data stride-x="1" stride-y="1" pad-x="1" pad-y="1" kernel-x="3" kernel-y="3" output="128" group="1"/>
            <input>
                <port id="139">
                    <dim>1</dim>
                    <dim>128</dim>
                    <dim>28</dim>
                    <dim>28</dim>
                </port>
            </input>
            <output>
                <port id="140">
                    <dim>1</dim>
                    <dim>128</dim>
                    <dim>28</dim>
                    <dim>28</dim>
                </port>
            </output>
            <weights offset="2670592" size="589824"/>
            <biases offset="3260416" size="512"/>
        </layer>
        <layer name="res3b_branch2b_relu" type="ReLU" precision="FP32" id="71">
            <input>
                <port id="145">
                    <dim>1</dim>
                    <dim>128</dim>
                    <dim>28</dim>
                    <dim>28</dim>
                </port>
            </input>
            <output>
                <port id="146">
                    <dim>1</dim>
                    <dim>128</dim>
                    <dim>28</dim>
                    <dim>28</dim>
                </port>
            </output>
        </layer>
        <layer name="res3b_branch2c" type="Convolution" precision="FP32" id="72">
            <convolution_data stride-x="1" stride-y="1" pad-x="0" pad-y="0" kernel-x="1" kernel-y="1" output="512" group="1"/>
            <input>
                <port id="147">
                    <dim>1</dim>
                    <dim>128</dim>
                    <dim>28</dim>
                    <dim>28</dim>
                </port>
            </input>
            <output>
                <port id="148">
                    <dim>1</dim>
                    <dim>512</dim>
                    <dim>28</dim>
                    <dim>28</dim>
                </port>
            </output>
            <weights offset="3260928" size="262144"/>
            <biases offset="3523072" size="2048"/>
        </layer>
        <layer name="res3b" type="Eltwise" precision="FP32" id="75">
            <elementwise_data operation="sum"/>
            <input>
                <port id="153">
                    <dim>1</dim>
                    <dim>512</dim>
                    <dim>28</dim>
                    <dim>28</dim>
                </port>
                <port id="154">
                    <dim>1</dim>
                    <dim>512</dim>
                    <dim>28</dim>
                    <dim>28</dim>
                </port>
            </input>
            <output>
                <port id="155">
                    <dim>1</dim>
                    <dim>512</dim>
                    <dim>28</dim>
                    <dim>28</dim>
                </port>
            </output>
        </layer>
        <layer name="res3b_relu" type="ReLU" precision="FP32" id="76">
            <input>
                <port id="156">
                    <dim>1</dim>
                    <dim>512</dim>
                    <dim>28</dim>
                    <dim>28</dim>
                </port>
            </input>
            <output>
                <port id="157">
                    <dim>1</dim>
                    <dim>512</dim>
                    <dim>28</dim>
                    <dim>28</dim>
                </port>
            </output>
        </layer>
        <layer name="res3c_branch2a" type="Convolution" precision="FP32" id="77">
            <convolution_data stride-x="1" stride-y="1" pad-x="0" pad-y="0" kernel-x="1" kernel-y="1" output="128" group="1"/>
            <input>
                <port id="158">
                    <dim>1</dim>
                    <dim>512</dim>
                    <dim>28</dim>
                    <dim>28</dim>
                </port>
            </input>
            <output>
                <port id="159">
                    <dim>1</dim>
                    <dim>128</dim>
                    <dim>28</dim>
                    <dim>28</dim>
                </port>
            </output>
            <weights offset="3525120" size="262144"/>
            <biases offset="3787264" size="512"/>
        </layer>
        <layer name="res3c_branch2a_relu" type="ReLU" precision="FP32" id="80">
            <input>
                <port id="164">
                    <dim>1</dim>
                    <dim>128</dim>
                    <dim>28</dim>
                    <dim>28</dim>
                </port>
            </input>
            <output>
                <port id="165">
                    <dim>1</dim>
                    <dim>128</dim>
                    <dim>28</dim>
                    <dim>28</dim>
                </port>
            </output>
        </layer>
        <layer name="res3c_branch2b" type="Convolution" precision="FP32" id="81">
            <convolution_data stride-x="1" stride-y="1" pad-x="1" pad-y="1" kernel-x="3" kernel-y="3" output="128" group="1"/>
            <input>
                <port id="166">
                    <dim>1</dim>
                    <dim>128</dim>
                    <dim>28</dim>
                    <dim>28</dim>
                </port>
            </input>
            <output>
                <port id="167">
                    <dim>1</dim>
                    <dim>128</dim>
                    <dim>28</dim>
                    <dim>28</dim>
                </port>
            </output>
            <weights offset="3787776" size="589824"/>
            <biases offset="4377600" size="512"/>
        </layer>
        <layer name="res3c_branch2b_relu" type="ReLU" precision="FP32" id="84">
            <input>
                <port id="172">
                    <dim>1</dim>
                    <dim>128</dim>
                    <dim>28</dim>
                    <dim>28</dim>
                </port>
            </input>
            <output>
                <port id="173">
                    <dim>1</dim>
                    <dim>128</dim>
                    <dim>28</dim>
                    <dim>28</dim>
                </port>
            </output>
        </layer>
        <layer name="res3c_branch2c" type="Convolution" precision="FP32" id="85">
            <convolution_data stride-x="1" stride-y="1" pad-x="0" pad-y="0" kernel-x="1" kernel-y="1" output="512" group="1"/>
            <input>
                <port id="174">
                    <dim>1</dim>
                    <dim>128</dim>
                    <dim>28</dim>
                    <dim>28</dim>
                </port>
            </input>
            <output>
                <port id="175">
                    <dim>1</dim>
                    <dim>512</dim>
                    <dim>28</dim>
                    <dim>28</dim>
                </port>
            </output>
            <weights offset="4378112" size="262144"/>
            <biases offset="4640256" size="2048"/>
        </layer>
        <layer name="res3c" type="Eltwise" precision="FP32" id="88">
            <elementwise_data operation="sum"/>
            <input>
                <port id="180">
                    <dim>1</dim>
                    <dim>512</dim>
                    <dim>28</dim>
                    <dim>28</dim>
                </port>
                <port id="181">
                    <dim>1</dim>
                    <dim>512</dim>
                    <dim>28</dim>
                    <dim>28</dim>
                </port>
            </input>
            <output>
                <port id="182">
                    <dim>1</dim>
                    <dim>512</dim>
                    <dim>28</dim>
                    <dim>28</dim>
                </port>
            </output>
        </layer>
        <layer name="res3c_relu" type="ReLU" precision="FP32" id="89">
            <input>
                <port id="183">
                    <dim>1</dim>
                    <dim>512</dim>
                    <dim>28</dim>
                    <dim>28</dim>
                </port>
            </input>
            <output>
                <port id="184">
                    <dim>1</dim>
                    <dim>512</dim>
                    <dim>28</dim>
                    <dim>28</dim>
                </port>
            </output>
        </layer>
        <layer name="res3d_branch2a" type="Convolution" precision="FP32" id="90">
            <convolution_data stride-x="1" stride-y="1" pad-x="0" pad-y="0" kernel-x="1" kernel-y="1" output="128" group="1"/>
            <input>
                <port id="185">
                    <dim>1</dim>
                    <dim>512</dim>
                    <dim>28</dim>
                    <dim>28</dim>
                </port>
            </input>
            <output>
                <port id="186">
                    <dim>1</dim>
                    <dim>128</dim>
                    <dim>28</dim>
                    <dim>28</dim>
                </port>
            </output>
            <weights offset="4642304" size="262144"/>
            <biases offset="4904448" size="512"/>
        </layer>
        <layer name="res3d_branch2a_relu" type="ReLU" precision="FP32" id="93">
            <input>
                <port id="191">
                    <dim>1</dim>
                    <dim>128</dim>
                    <dim>28</dim>
                    <dim>28</dim>
                </port>
            </input>
            <output>
                <port id="192">
                    <dim>1</dim>
                    <dim>128</dim>
                    <dim>28</dim>
                    <dim>28</dim>
                </port>
            </output>
        </layer>
        <layer name="res3d_branch2b" type="Convolution" precision="FP32" id="94">
            <convolution_data stride-x="1" stride-y="1" pad-x="1" pad-y="1" kernel-x="3" kernel-y="3" output="128" group="1"/>
            <input>
                <port id="193">
                    <dim>1</dim>
                    <dim>128</dim>
                    <dim>28</dim>
                    <dim>28</dim>
                </port>
            </input>
            <output>
                <port id="194">
                    <dim>1</dim>
                    <dim>128</dim>
                    <dim>28</dim>
                    <dim>28</dim>
                </port>
            </output>
            <weights offset="4904960" size="589824"/>
            <biases offset="5494784" size="512"/>
        </layer>
        <layer name="res3d_branch2b_relu" type="ReLU" precision="FP32" id="97">
            <input>
                <port id="199">
                    <dim>1</dim>
                    <dim>128</dim>
                    <dim>28</dim>
                    <dim>28</dim>
                </port>
            </input>
            <output>
                <port id="200">
                    <dim>1</dim>
                    <dim>128</dim>
                    <dim>28</dim>
                    <dim>28</dim>
                </port>
            </output>
        </layer>
        <layer name="res3d_branch2c" type="Convolution" precision="FP32" id="98">
            <convolution_data stride-x="1" stride-y="1" pad-x="0" pad-y="0" kernel-x="1" kernel-y="1" output="512" group="1"/>
            <input>
                <port id="201">
                    <dim>1</dim>
                    <dim>128</dim>
                    <dim>28</dim>
                    <dim>28</dim>
                </port>
            </input>
            <output>
                <port id="202">
                    <dim>1</dim>
                    <dim>512</dim>
                    <dim>28</dim>
                    <dim>28</dim>
                </port>
            </output>
            <weights offset="5495296" size="262144"/>
            <biases offset="5757440" size="2048"/>
        </layer>
        <layer name="res3d" type="Eltwise" precision="FP32" id="101">
            <elementwise_data operation="sum"/>
            <input>
                <port id="207">
                    <dim>1</dim>
                    <dim>512</dim>
                    <dim>28</dim>
                    <dim>28</dim>
                </port>
                <port id="208">
                    <dim>1</dim>
                    <dim>512</dim>
                    <dim>28</dim>
                    <dim>28</dim>
                </port>
            </input>
            <output>
                <port id="209">
                    <dim>1</dim>
                    <dim>512</dim>
                    <dim>28</dim>
                    <dim>28</dim>
                </port>
            </output>
        </layer>
        <layer name="res3d_relu" type="ReLU" precision="FP32" id="102">
            <input>
                <port id="210">
                    <dim>1</dim>
                    <dim>512</dim>
                    <dim>28</dim>
                    <dim>28</dim>
                </port>
            </input>
            <output>
                <port id="211">
                    <dim>1</dim>
                    <dim>512</dim>
                    <dim>28</dim>
                    <dim>28</dim>
                </port>
            </output>
        </layer>
        <layer name="res4a_branch2a" type="Convolution" precision="FP32" id="106">
            <convolution_data stride-x="2" stride-y="2" pad-x="0" pad-y="0" kernel-x="1" kernel-y="1" output="256" group="1"/>
            <input>
                <port id="218">
                    <dim>1</dim>
                    <dim>512</dim>
                    <dim>28</dim>
                    <dim>28</dim>
                </port>
            </input>
            <output>
                <port id="219">
                    <dim>1</dim>
                    <dim>256</dim>
                    <dim>14</dim>
                    <dim>14</dim>
                </port>
            </output>
            <weights offset="5759488" size="524288"/>
            <biases offset="6283776" size="1024"/>
        </layer>
        <layer name="res4a_branch2a_relu" type="ReLU" precision="FP32" id="109">
            <input>
                <port id="224">
                    <dim>1</dim>
                    <dim>256</dim>
                    <dim>14</dim>
                    <dim>14</dim>
                </port>
            </input>
            <output>
                <port id="225">
                    <dim>1</dim>
                    <dim>256</dim>
                    <dim>14</dim>
                    <dim>14</dim>
                </port>
            </output>
        </layer>
        <layer name="res4a_branch2b" type="Convolution" precision="FP32" id="110">
            <convolution_data stride-x="1" stride-y="1" pad-x="1" pad-y="1" kernel-x="3" kernel-y="3" output="256" group="1"/>
            <input>
                <port id="226">
                    <dim>1</dim>
                    <dim>256</dim>
                    <dim>14</dim>
                    <dim>14</dim>
                </port>
            </input>
            <output>
                <port id="227">
                    <dim>1</dim>
                    <dim>256</dim>
                    <dim>14</dim>
                    <dim>14</dim>
                </port>
            </output>
            <weights offset="6284800" size="2359296"/>
            <biases offset="8644096" size="1024"/>
        </layer>
        <layer name="res4a_branch2b_relu" type="ReLU" precision="FP32" id="113">
            <input>
                <port id="232">
                    <dim>1</dim>
                    <dim>256</dim>
                    <dim>14</dim>
                    <dim>14</dim>
                </port>
            </input>
            <output>
                <port id="233">
                    <dim>1</dim>
                    <dim>256</dim>
                    <dim>14</dim>
                    <dim>14</dim>
                </port>
            </output>
        </layer>
        <layer name="res4a_branch2c" type="Convolution" precision="FP32" id="114">
            <convolution_data stride-x="1" stride-y="1" pad-x="0" pad-y="0" kernel-x="1" kernel-y="1" output="1024" group="1"/>
            <input>
                <port id="234">
                    <dim>1</dim>
                    <dim>256</dim>
                    <dim>14</dim>
                    <dim>14</dim>
                </port>
            </input>
            <output>
                <port id="235">
                    <dim>1</dim>
                    <dim>1024</dim>
                    <dim>14</dim>
                    <dim>14</dim>
                </port>
            </output>
            <weights offset="8645120" size="1048576"/>
            <biases offset="9693696" size="4096"/>
        </layer>
        <layer name="res4a_branch1" type="Convolution" precision="FP32" id="103">
            <convolution_data stride-x="2" stride-y="2" pad-x="0" pad-y="0" kernel-x="1" kernel-y="1" output="1024" group="1"/>
            <input>
                <port id="212">
                    <dim>1</dim>
                    <dim>512</dim>
                    <dim>28</dim>
                    <dim>28</dim>
                </port>
            </input>
            <output>
                <port id="213">
                    <dim>1</dim>
                    <dim>1024</dim>
                    <dim>14</dim>
                    <dim>14</dim>
                </port>
            </output>
            <weights offset="9697792" size="2097152"/>
            <biases offset="11794944" size="4096"/>
        </layer>
        <layer name="res4a" type="Eltwise" precision="FP32" id="117">
            <elementwise_data operation="sum"/>
            <input>
                <port id="240">
                    <dim>1</dim>
                    <dim>1024</dim>
                    <dim>14</dim>
                    <dim>14</dim>
                </port>
                <port id="241">
                    <dim>1</dim>
                    <dim>1024</dim>
                    <dim>14</dim>
                    <dim>14</dim>
                </port>
            </input>
            <output>
                <port id="242">
                    <dim>1</dim>
                    <dim>1024</dim>
                    <dim>14</dim>
                    <dim>14</dim>
                </port>
            </output>
        </layer>
        <layer name="res4a_relu" type="ReLU" precision="FP32" id="118">
            <input>
                <port id="243">
                    <dim>1</dim>
                    <dim>1024</dim>
                    <dim>14</dim>
                    <dim>14</dim>
                </port>
            </input>
            <output>
                <port id="244">
                    <dim>1</dim>
                    <dim>1024</dim>
                    <dim>14</dim>
                    <dim>14</dim>
                </port>
            </output>
        </layer>
        <layer name="res4b_branch2a" type="Convolution" precision="FP32" id="119">
            <convolution_data stride-x="1" stride-y="1" pad-x="0" pad-y="0" kernel-x="1" kernel-y="1" output="256" group="1"/>
            <input>
                <port id="245">
                    <dim>1</dim>
                    <dim>1024</dim>
                    <dim>14</dim>
                    <dim>14</dim>
                </port>
            </input>
            <output>
                <port id="246">
                    <dim>1</dim>
                    <dim>256</dim>
                    <dim>14</dim>
                    <dim>14</dim>
                </port>
            </output>
            <weights offset="11799040" size="1048576"/>
            <biases offset="12847616" size="1024"/>
        </layer>
        <layer name="res4b_branch2a_relu" type="ReLU" precision="FP32" id="122">
            <input>
                <port id="251">
                    <dim>1</dim>
                    <dim>256</dim>
                    <dim>14</dim>
                    <dim>14</dim>
                </port>
            </input>
            <output>
                <port id="252">
                    <dim>1</dim>
                    <dim>256</dim>
                    <dim>14</dim>
                    <dim>14</dim>
                </port>
            </output>
        </layer>
        <layer name="res4b_branch2b" type="Convolution" precision="FP32" id="123">
            <convolution_data stride-x="1" stride-y="1" pad-x="1" pad-y="1" kernel-x="3" kernel-y="3" output="256" group="1"/>
            <input>
                <port id="253">
                    <dim>1</dim>
                    <dim>256</dim>
                    <dim>14</dim>
                    <dim>14</dim>
                </port>
            </input>
            <output>
                <port id="254">
                    <dim>1</dim>
                    <dim>256</dim>
                    <dim>14</dim>
                    <dim>14</dim>
                </port>
            </output>
            <weights offset="12848640" size="2359296"/>
            <biases offset="15207936" size="1024"/>
        </layer>
        <layer name="res4b_branch2b_relu" type="ReLU" precision="FP32" id="126">
            <input>
                <port id="259">
                    <dim>1</dim>
                    <dim>256</dim>
                    <dim>14</dim>
                    <dim>14</dim>
                </port>
            </input>
            <output>
                <port id="260">
                    <dim>1</dim>
                    <dim>256</dim>
                    <dim>14</dim>
                    <dim>14</dim>
                </port>
            </output>
        </layer>
        <layer name="res4b_branch2c" type="Convolution" precision="FP32" id="127">
            <convolution_data stride-x="1" stride-y="1" pad-x="0" pad-y="0" kernel-x="1" kernel-y="1" output="1024" group="1"/>
            <input>
                <port id="261">
                    <dim>1</dim>
                    <dim>256</dim>
                    <dim>14</dim>
                    <dim>14</dim>
                </port>
            </input>
            <output>
                <port id="262">
                    <dim>1</dim>
                    <dim>1024</dim>
                    <dim>14</dim>
                    <dim>14</dim>
                </port>
            </output>
            <weights offset="15208960" size="1048576"/>
            <biases offset="16257536" size="4096"/>
        </layer>
        <layer name="res4b" type="Eltwise" precision="FP32" id="130">
            <elementwise_data operation="sum"/>
            <input>
                <port id="267">
                    <dim>1</dim>
                    <dim>1024</dim>
                    <dim>14</dim>
                    <dim>14</dim>
                </port>
                <port id="268">
                    <dim>1</dim>
                    <dim>1024</dim>
                    <dim>14</dim>
                    <dim>14</dim>
                </port>
            </input>
            <output>
                <port id="269">
                    <dim>1</dim>
                    <dim>1024</dim>
                    <dim>14</dim>
                    <dim>14</dim>
                </port>
            </output>
        </layer>
        <layer name="res4b_relu" type="ReLU" precision="FP32" id="131">
            <input>
                <port id="270">
                    <dim>1</dim>
                    <dim>1024</dim>
                    <dim>14</dim>
                    <dim>14</dim>
                </port>
            </input>
            <output>
                <port id="271">
                    <dim>1</dim>
                    <dim>1024</dim>
                    <dim>14</dim>
                    <dim>14</dim>
                </port>
            </output>
        </layer>
        <layer name="res4c_branch2a" type="Convolution" precision="FP32" id="132">
            <convolution_data stride-x="1" stride-y="1" pad-x="0" pad-y="0" kernel-x="1" kernel-y="1" output="256" group="1"/>
            <input>
                <port id="272">
                    <dim>1</dim>
                    <dim>1024</dim>
                    <dim>14</dim>
                    <dim>14</dim>
                </port>
            </input>
            <output>
                <port id="273">
                    <dim>1</dim>
                    <dim>256</dim>
                    <dim>14</dim>
                    <dim>14</dim>
                </port>
            </output>
            <weights offset="16261632" size="1048576"/>
            <biases offset="17310208" size="1024"/>
        </layer>
        <layer name="res4c_branch2a_relu" type="ReLU" precision="FP32" id="135">
            <input>
                <port id="278">
                    <dim>1</dim>
                    <dim>256</dim>
                    <dim>14</dim>
                    <dim>14</dim>
                </port>
            </input>
            <output>
                <port id="279">
                    <dim>1</dim>
                    <dim>256</dim>
                    <dim>14</dim>
                    <dim>14</dim>
                </port>
            </output>
        </layer>
        <layer name="res4c_branch2b" type="Convolution" precision="FP32" id="136">
            <convolution_data stride-x="1" stride-y="1" pad-x="1" pad-y="1" kernel-x="3" kernel-y="3" output="256" group="1"/>
            <input>
                <port id="280">
                    <dim>1</dim>
                    <dim>256</dim>
                    <dim>14</dim>
                    <dim>14</dim>
                </port>
            </input>
            <output>
                <port id="281">
                    <dim>1</dim>
                    <dim>256</dim>
                    <dim>14</dim>
                    <dim>14</dim>
                </port>
            </output>
            <weights offset="17311232" size="2359296"/>
            <biases offset="19670528" size="1024"/>
        </layer>
        <layer name="res4c_branch2b_relu" type="ReLU" precision="FP32" id="139">
            <input>
                <port id="286">
                    <dim>1</dim>
                    <dim>256</dim>
                    <dim>14</dim>
                    <dim>14</dim>
                </port>
            </input>
            <output>
                <port id="287">
                    <dim>1</dim>
                    <dim>256</dim>
                    <dim>14</dim>
                    <dim>14</dim>
                </port>
            </output>
        </layer>
        <layer name="res4c_branch2c" type="Convolution" precision="FP32" id="140">
            <convolution_data stride-x="1" stride-y="1" pad-x="0" pad-y="0" kernel-x="1" kernel-y="1" output="1024" group="1"/>
            <input>
                <port id="288">
                    <dim>1</dim>
                    <dim>256</dim>
                    <dim>14</dim>
                    <dim>14</dim>
                </port>
            </input>
            <output>
                <port id="289">
                    <dim>1</dim>
                    <dim>1024</dim>
                    <dim>14</dim>
                    <dim>14</dim>
                </port>
            </output>
            <weights offset="19671552" size="1048576"/>
            <biases offset="20720128" size="4096"/>
        </layer>
        <layer name="res4c" type="Eltwise" precision="FP32" id="143">
            <elementwise_data operation="sum"/>
            <input>
                <port id="294">
                    <dim>1</dim>
                    <dim>1024</dim>
                    <dim>14</dim>
                    <dim>14</dim>
                </port>
                <port id="295">
                    <dim>1</dim>
                    <dim>1024</dim>
                    <dim>14</dim>
                    <dim>14</dim>
                </port>
            </input>
            <output>
                <port id="296">
                    <dim>1</dim>
                    <dim>1024</dim>
                    <dim>14</dim>
                    <dim>14</dim>
                </port>
            </output>
        </layer>
        <layer name="res4c_relu" type="ReLU" precision="FP32" id="144">
            <input>
                <port id="297">
                    <dim>1</dim>
                    <dim>1024</dim>
                    <dim>14</dim>
                    <dim>14</dim>
                </port>
            </input>
            <output>
                <port id="298">
                    <dim>1</dim>
                    <dim>1024</dim>
                    <dim>14</dim>
                    <dim>14</dim>
                </port>
            </output>
        </layer>
        <layer name="res4d_branch2a" type="Convolution" precision="FP32" id="145">
            <convolution_data stride-x="1" stride-y="1" pad-x="0" pad-y="0" kernel-x="1" kernel-y="1" output="256" group="1"/>
            <input>
                <port id="299">
                    <dim>1</dim>
                    <dim>1024</dim>
                    <dim>14</dim>
                    <dim>14</dim>
                </port>
            </input>
            <output>
                <port id="300">
                    <dim>1</dim>
                    <dim>256</dim>
                    <dim>14</dim>
                    <dim>14</dim>
                </port>
            </output>
            <weights offset="20724224" size="1048576"/>
            <biases offset="21772800" size="1024"/>
        </layer>
        <layer name="res4d_branch2a_relu" type="ReLU" precision="FP32" id="148">
            <input>
                <port id="305">
                    <dim>1</dim>
                    <dim>256</dim>
                    <dim>14</dim>
                    <dim>14</dim>
                </port>
            </input>
            <output>
                <port id="306">
                    <dim>1</dim>
                    <dim>256</dim>
                    <dim>14</dim>
                    <dim>14</dim>
                </port>
            </output>
        </layer>
        <layer name="res4d_branch2b" type="Convolution" precision="FP32" id="149">
            <convolution_data stride-x="1" stride-y="1" pad-x="1" pad-y="1" kernel-x="3" kernel-y="3" output="256" group="1"/>
            <input>
                <port id="307">
                    <dim>1</dim>
                    <dim>256</dim>
                    <dim>14</dim>
                    <dim>14</dim>
                </port>
            </input>
            <output>
                <port id="308">
                    <dim>1</dim>
                    <dim>256</dim>
                    <dim>14</dim>
                    <dim>14</dim>
                </port>
            </output>
            <weights offset="21773824" size="2359296"/>
            <biases offset="24133120" size="1024"/>
        </layer>
        <layer name="res4d_branch2b_relu" type="ReLU" precision="FP32" id="152">
            <input>
                <port id="313">
                    <dim>1</dim>
                    <dim>256</dim>
                    <dim>14</dim>
                    <dim>14</dim>
                </port>
            </input>
            <output>
                <port id="314">
                    <dim>1</dim>
                    <dim>256</dim>
                    <dim>14</dim>
                    <dim>14</dim>
                </port>
            </output>
        </layer>
        <layer name="res4d_branch2c" type="Convolution" precision="FP32" id="153">
            <convolution_data stride-x="1" stride-y="1" pad-x="0" pad-y="0" kernel-x="1" kernel-y="1" output="1024" group="1"/>
            <input>
                <port id="315">
                    <dim>1</dim>
                    <dim>256</dim>
                    <dim>14</dim>
                    <dim>14</dim>
                </port>
            </input>
            <output>
                <port id="316">
                    <dim>1</dim>
                    <dim>1024</dim>
                    <dim>14</dim>
                    <dim>14</dim>
                </port>
            </output>
            <weights offset="24134144" size="1048576"/>
            <biases offset="25182720" size="4096"/>
        </layer>
        <layer name="res4d" type="Eltwise" precision="FP32" id="156">
            <elementwise_data operation="sum"/>
            <input>
                <port id="321">
                    <dim>1</dim>
                    <dim>1024</dim>
                    <dim>14</dim>
                    <dim>14</dim>
                </port>
                <port id="322">
                    <dim>1</dim>
                    <dim>1024</dim>
                    <dim>14</dim>
                    <dim>14</dim>
                </port>
            </input>
            <output>
                <port id="323">
                    <dim>1</dim>
                    <dim>1024</dim>
                    <dim>14</dim>
                    <dim>14</dim>
                </port>
            </output>
        </layer>
        <layer name="res4d_relu" type="ReLU" precision="FP32" id="157">
            <input>
                <port id="324">
                    <dim>1</dim>
                    <dim>1024</dim>
                    <dim>14</dim>
                    <dim>14</dim>
                </port>
            </input>
            <output>
                <port id="325">
                    <dim>1</dim>
                    <dim>1024</dim>
                    <dim>14</dim>
                    <dim>14</dim>
                </port>
            </output>
        </layer>
        <layer name="res4e_branch2a" type="Convolution" precision="FP32" id="158">
            <convolution_data stride-x="1" stride-y="1" pad-x="0" pad-y="0" kernel-x="1" kernel-y="1" output="256" group="1"/>
            <input>
                <port id="326">
                    <dim>1</dim>
                    <dim>1024</dim>
                    <dim>14</dim>
                    <dim>14</dim>
                </port>
            </input>
            <output>
                <port id="327">
                    <dim>1</dim>
                    <dim>256</dim>
                    <dim>14</dim>
                    <dim>14</dim>
                </port>
            </output>
            <weights offset="25186816" size="1048576"/>
            <biases offset="26235392" size="1024"/>
        </layer>
        <layer name="res4e_branch2a_relu" type="ReLU" precision="FP32" id="161">
            <input>
                <port id="332">
                    <dim>1</dim>
                    <dim>256</dim>
                    <dim>14</dim>
                    <dim>14</dim>
                </port>
            </input>
            <output>
                <port id="333">
                    <dim>1</dim>
                    <dim>256</dim>
                    <dim>14</dim>
                    <dim>14</dim>
                </port>
            </output>
        </layer>
        <layer name="res4e_branch2b" type="Convolution" precision="FP32" id="162">
            <convolution_data stride-x="1" stride-y="1" pad-x="1" pad-y="1" kernel-x="3" kernel-y="3" output="256" group="1"/>
            <input>
                <port id="334">
                    <dim>1</dim>
                    <dim>256</dim>
                    <dim>14</dim>
                    <dim>14</dim>
                </port>
            </input>
            <output>
                <port id="335">
                    <dim>1</dim>
                    <dim>256</dim>
                    <dim>14</dim>
                    <dim>14</dim>
                </port>
            </output>
            <weights offset="26236416" size="2359296"/>
            <biases offset="28595712" size="1024"/>
        </layer>
        <layer name="res4e_branch2b_relu" type="ReLU" precision="FP32" id="165">
            <input>
                <port id="340">
                    <dim>1</dim>
                    <dim>256</dim>
                    <dim>14</dim>
                    <dim>14</dim>
                </port>
            </input>
            <output>
                <port id="341">
                    <dim>1</dim>
                    <dim>256</dim>
                    <dim>14</dim>
                    <dim>14</dim>
                </port>
            </output>
        </layer>
        <layer name="res4e_branch2c" type="Convolution" precision="FP32" id="166">
            <convolution_data stride-x="1" stride-y="1" pad-x="0" pad-y="0" kernel-x="1" kernel-y="1" output="1024" group="1"/>
            <input>
                <port id="342">
                    <dim>1</dim>
                    <dim>256</dim>
                    <dim>14</dim>
                    <dim>14</dim>
                </port>
            </input>
            <output>
                <port id="343">
                    <dim>1</dim>
                    <dim>1024</dim>
                    <dim>14</dim>
                    <dim>14</dim>
                </port>
            </output>
            <weights offset="28596736" size="1048576"/>
            <biases offset="29645312" size="4096"/>
        </layer>
        <layer name="res4e" type="Eltwise" precision="FP32" id="169">
            <elementwise_data operation="sum"/>
            <input>
                <port id="348">
                    <dim>1</dim>
                    <dim>1024</dim>
                    <dim>14</dim>
                    <dim>14</dim>
                </port>
                <port id="349">
                    <dim>1</dim>
                    <dim>1024</dim>
                    <dim>14</dim>
                    <dim>14</dim>
                </port>
            </input>
            <output>
                <port id="350">
                    <dim>1</dim>
                    <dim>1024</dim>
                    <dim>14</dim>
                    <dim>14</dim>
                </port>
            </output>
        </layer>
        <layer name="res4e_relu" type="ReLU" precision="FP32" id="170">
            <input>
                <port id="351">
                    <dim>1</dim>
                    <dim>1024</dim>
                    <dim>14</dim>
                    <dim>14</dim>
                </port>
            </input>
            <output>
                <port id="352">
                    <dim>1</dim>
                    <dim>1024</dim>
                    <dim>14</dim>
                    <dim>14</dim>
                </port>
            </output>
        </layer>
        <layer name="res4f_branch2a" type="Convolution" precision="FP32" id="171">
            <convolution_data stride-x="1" stride-y="1" pad-x="0" pad-y="0" kernel-x="1" kernel-y="1" output="256" group="1"/>
            <input>
                <port id="353">
                    <dim>1</dim>
                    <dim>1024</dim>
                    <dim>14</dim>
                    <dim>14</dim>
                </port>
            </input>
            <output>
                <port id="354">
                    <dim>1</dim>
                    <dim>256</dim>
                    <dim>14</dim>
                    <dim>14</dim>
                </port>
            </output>
            <weights offset="29649408" size="1048576"/>
            <biases offset="30697984" size="1024"/>
        </layer>
        <layer name="res4f_branch2a_relu" type="ReLU" precision="FP32" id="174">
            <input>
                <port id="359">
                    <dim>1</dim>
                    <dim>256</dim>
                    <dim>14</dim>
                    <dim>14</dim>
                </port>
            </input>
            <output>
                <port id="360">
                    <dim>1</dim>
                    <dim>256</dim>
                    <dim>14</dim>
                    <dim>14</dim>
                </port>
            </output>
        </layer>
        <layer name="res4f_branch2b" type="Convolution" precision="FP32" id="175">
            <convolution_data stride-x="1" stride-y="1" pad-x="1" pad-y="1" kernel-x="3" kernel-y="3" output="256" group="1"/>
            <input>
                <port id="361">
                    <dim>1</dim>
                    <dim>256</dim>
                    <dim>14</dim>
                    <dim>14</dim>
                </port>
            </input>
            <output>
                <port id="362">
                    <dim>1</dim>
                    <dim>256</dim>
                    <dim>14</dim>
                    <dim>14</dim>
                </port>
            </output>
            <weights offset="30699008" size="2359296"/>
            <biases offset="33058304" size="1024"/>
        </layer>
        <layer name="res4f_branch2b_relu" type="ReLU" precision="FP32" id="178">
            <input>
                <port id="367">
                    <dim>1</dim>
                    <dim>256</dim>
                    <dim>14</dim>
                    <dim>14</dim>
                </port>
            </input>
            <output>
                <port id="368">
                    <dim>1</dim>
                    <dim>256</dim>
                    <dim>14</dim>
                    <dim>14</dim>
                </port>
            </output>
        </layer>
        <layer name="res4f_branch2c" type="Convolution" precision="FP32" id="179">
            <convolution_data stride-x="1" stride-y="1" pad-x="0" pad-y="0" kernel-x="1" kernel-y="1" output="1024" group="1"/>
            <input>
                <port id="369">
                    <dim>1</dim>
                    <dim>256</dim>
                    <dim>14</dim>
                    <dim>14</dim>
                </port>
            </input>
            <output>
                <port id="370">
                    <dim>1</dim>
                    <dim>1024</dim>
                    <dim>14</dim>
                    <dim>14</dim>
                </port>
            </output>
            <weights offset="33059328" size="1048576"/>
            <biases offset="34107904" size="4096"/>
        </layer>
        <layer name="res4f" type="Eltwise" precision="FP32" id="182">
            <elementwise_data operation="sum"/>
            <input>
                <port id="375">
                    <dim>1</dim>
                    <dim>1024</dim>
                    <dim>14</dim>
                    <dim>14</dim>
                </port>
                <port id="376">
                    <dim>1</dim>
                    <dim>1024</dim>
                    <dim>14</dim>
                    <dim>14</dim>
                </port>
            </input>
            <output>
                <port id="377">
                    <dim>1</dim>
                    <dim>1024</dim>
                    <dim>14</dim>
                    <dim>14</dim>
                </port>
            </output>
        </layer>
        <layer name="res4f_relu" type="ReLU" precision="FP32" id="183">
            <input>
                <port id="378">
                    <dim>1</dim>
                    <dim>1024</dim>
                    <dim>14</dim>
                    <dim>14</dim>
                </port>
            </input>
            <output>
                <port id="379">
                    <dim>1</dim>
                    <dim>1024</dim>
                    <dim>14</dim>
                    <dim>14</dim>
                </port>
            </output>
        </layer>
        <layer name="res5a_branch2a" type="Convolution" precision="FP32" id="187">
            <convolution_data stride-x="2" stride-y="2" pad-x="0" pad-y="0" kernel-x="1" kernel-y="1" output="512" group="1"/>
            <input>
                <port id="386">
                    <dim>1</dim>
                    <dim>1024</dim>
                    <dim>14</dim>
                    <dim>14</dim>
                </port>
            </input>
            <output>
                <port id="387">
                    <dim>1</dim>
                    <dim>512</dim>
                    <dim>7</dim>
                    <dim>7</dim>
                </port>
            </output>
            <weights offset="34112000" size="2097152"/>
            <biases offset="36209152" size="2048"/>
        </layer>
        <layer name="res5a_branch2a_relu" type="ReLU" precision="FP32" id="190">
            <input>
                <port id="392">
                    <dim>1</dim>
                    <dim>512</dim>
                    <dim>7</dim>
                    <dim>7</dim>
                </port>
            </input>
            <output>
                <port id="393">
                    <dim>1</dim>
                    <dim>512</dim>
                    <dim>7</dim>
                    <dim>7</dim>
                </port>
            </output>
        </layer>
        <layer name="res5a_branch2b" type="Convolution" precision="FP32" id="191">
            <convolution_data stride-x="1" stride-y="1" pad-x="1" pad-y="1" kernel-x="3" kernel-y="3" output="512" group="1"/>
            <input>
                <port id="394">
                    <dim>1</dim>
                    <dim>512</dim>
                    <dim>7</dim>
                    <dim>7</dim>
                </port>
            </input>
            <output>
                <port id="395">
                    <dim>1</dim>
                    <dim>512</dim>
                    <dim>7</dim>
                    <dim>7</dim>
                </port>
            </output>
            <weights offset="36211200" size="9437184"/>
            <biases offset="45648384" size="2048"/>
        </layer>
        <layer name="res5a_branch2b_relu" type="ReLU" precision="FP32" id="194">
            <input>
                <port id="400">
                    <dim>1</dim>
                    <dim>512</dim>
                    <dim>7</dim>
                    <dim>7</dim>
                </port>
            </input>
            <output>
                <port id="401">
                    <dim>1</dim>
                    <dim>512</dim>
                    <dim>7</dim>
                    <dim>7</dim>
                </port>
            </output>
        </layer>
        <layer name="res5a_branch2c" type="Convolution" precision="FP32" id="195">
            <convolution_data stride-x="1" stride-y="1" pad-x="0" pad-y="0" kernel-x="1" kernel-y="1" output="2048" group="1"/>
            <input>
                <port id="402">
                    <dim>1</dim>
                    <dim>512</dim>
                    <dim>7</dim>
                    <dim>7</dim>
                </port>
            </input>
            <output>
                <port id="403">
                    <dim>1</dim>
                    <dim>2048</dim>
                    <dim>7</dim>
                    <dim>7</dim>
                </port>
            </output>
            <weights offset="45650432" size="4194304"/>
            <biases offset="49844736" size="8192"/>
        </layer>
        <layer name="res5a_branch1" type="Convolution" precision="FP32" id="184">
            <convolution_data stride-x="2" stride-y="2" pad-x="0" pad-y="0" kernel-x="1" kernel-y="1" output="2048" group="1"/>
            <input>
                <port id="380">
                    <dim>1</dim>
                    <dim>1024</dim>
                    <dim>14</dim>
                    <dim>14</dim>
                </port>
            </input>
            <output>
                <port id="381">
                    <dim>1</dim>
                    <dim>2048</dim>
                    <dim>7</dim>
                    <dim>7</dim>
                </port>
            </output>
            <weights offset="49852928" size="8388608"/>
            <biases offset="58241536" size="8192"/>
        </layer>
        <layer name="res5a" type="Eltwise" precision="FP32" id="198">
            <elementwise_data operation="sum"/>
            <input>
                <port id="408">
                    <dim>1</dim>
                    <dim>2048</dim>
                    <dim>7</dim>
                    <dim>7</dim>
                </port>
                <port id="409">
                    <dim>1</dim>
                    <dim>2048</dim>
                    <dim>7</dim>
                    <dim>7</dim>
                </port>
            </input>
            <output>
                <port id="410">
                    <dim>1</dim>
                    <dim>2048</dim>
                    <dim>7</dim>
                    <dim>7</dim>
                </port>
            </output>
        </layer>
        <layer name="res5a_relu" type="ReLU" precision="FP32" id="199">
            <input>
                <port id="411">
                    <dim>1</dim>
                    <dim>2048</dim>
                    <dim>7</dim>
                    <dim>7</dim>
                </port>
            </input>
            <output>
                <port id="412">
                    <dim>1</dim>
                    <dim>2048</dim>
                    <dim>7</dim>
                    <dim>7</dim>
                </port>
            </output>
        </layer>
        <layer name="res5b_branch2a" type="Convolution" precision="FP32" id="200">
            <convolution_data stride-x="1" stride-y="1" pad-x="0" pad-y="0" kernel-x="1" kernel-y="1" output="512" group="1"/>
            <input>
                <port id="413">
                    <dim>1</dim>
                    <dim>2048</dim>
                    <dim>7</dim>
                    <dim>7</dim>
                </port>
            </input>
            <output>
                <port id="414">
                    <dim>1</dim>
                    <dim>512</dim>
                    <dim>7</dim>
                    <dim>7</dim>
                </port>
            </output>
            <weights offset="58249728" size="4194304"/>
            <biases offset="62444032" size="2048"/>
        </layer>
        <layer name="res5b_branch2a_relu" type="ReLU" precision="FP32" id="203">
            <input>
                <port id="419">
                    <dim>1</dim>
                    <dim>512</dim>
                    <dim>7</dim>
                    <dim>7</dim>
                </port>
            </input>
            <output>
                <port id="420">
                    <dim>1</dim>
                    <dim>512</dim>
                    <dim>7</dim>
                    <dim>7</dim>
                </port>
            </output>
        </layer>
        <layer name="res5b_branch2b" type="Convolution" precision="FP32" id="204">
            <convolution_data stride-x="1" stride-y="1" pad-x="1" pad-y="1" kernel-x="3" kernel-y="3" output="512" group="1"/>
            <input>
                <port id="421">
                    <dim>1</dim>
                    <dim>512</dim>
                    <dim>7</dim>
                    <dim>7</dim>
                </port>
            </input>
            <output>
                <port id="422">
                    <dim>1</dim>
                    <dim>512</dim>
                    <dim>7</dim>
                    <dim>7</dim>
                </port>
            </output>
            <weights offset="62446080" size="9437184"/>
            <biases offset="71883264" size="2048"/>
        </layer>
        <layer name="res5b_branch2b_relu" type="ReLU" precision="FP32" id="207">
            <input>
                <port id="427">
                    <dim>1</dim>
                    <dim>512</dim>
                    <dim>7</dim>
                    <dim>7</dim>
                </port>
            </input>
            <output>
                <port id="428">
                    <dim>1</dim>
                    <dim>512</dim>
                    <dim>7</dim>
                    <dim>7</dim>
                </port>
            </output>
        </layer>
        <layer name="res5b_branch2c" type="Convolution" precision="FP32" id="208">
            <convolution_data stride-x="1" stride-y="1" pad-x="0" pad-y="0" kernel-x="1" kernel-y="1" output="2048" group="1"/>
            <input>
                <port id="429">
                    <dim>1</dim>
                    <dim>512</dim>
                    <dim>7</dim>
                    <dim>7</dim>
                </port>
            </input>
            <output>
                <port id="430">
                    <dim>1</dim>
                    <dim>2048</dim>
                    <dim>7</dim>
                    <dim>7</dim>
                </port>
            </output>
            <weights offset="71885312" size="4194304"/>
            <biases offset="76079616" size="8192"/>
        </layer>
        <layer name="res5b" type="Eltwise" precision="FP32" id="211">
            <elementwise_data operation="sum"/>
            <input>
                <port id="435">
                    <dim>1</dim>
                    <dim>2048</dim>
                    <dim>7</dim>
                    <dim>7</dim>
                </port>
                <port id="436">
                    <dim>1</dim>
                    <dim>2048</dim>
                    <dim>7</dim>
                    <dim>7</dim>
                </port>
            </input>
            <output>
                <port id="437">
                    <dim>1</dim>
                    <dim>2048</dim>
                    <dim>7</dim>
                    <dim>7</dim>
                </port>
            </output>
        </layer>
        <layer name="res5b_relu" type="ReLU" precision="FP32" id="212">
            <input>
                <port id="438">
                    <dim>1</dim>
                    <dim>2048</dim>
                    <dim>7</dim>
                    <dim>7</dim>
                </port>
            </input>
            <output>
                <port id="439">
                    <dim>1</dim>
                    <dim>2048</dim>
                    <dim>7</dim>
                    <dim>7</dim>
                </port>
            </output>
        </layer>
        <layer name="res5c_branch2a" type="Convolution" precision="FP32" id="213">
            <convolution_data stride-x="1" stride-y="1" pad-x="0" pad-y="0" kernel-x="1" kernel-y="1" output="512" group="1"/>
            <input>
                <port id="440">
                    <dim>1</dim>
                    <dim>2048</dim>
                    <dim>7</dim>
                    <dim>7</dim>
                </port>
            </input>
            <output>
                <port id="441">
                    <dim>1</dim>
                    <dim>512</dim>
                    <dim>7</dim>
                    <dim>7</dim>
                </port>
            </output>
            <weights offset="76087808" size="4194304"/>
            <biases offset="80282112" size="2048"/>
        </layer>
        <layer name="res5c_branch2a_relu" type="ReLU" precision="FP32" id="216">
            <input>
                <port id="446">
                    <dim>1</dim>
                    <dim>512</dim>
                    <dim>7</dim>
                    <dim>7</dim>
                </port>
            </input>
            <output>
                <port id="447">
                    <dim>1</dim>
                    <dim>512</dim>
                    <dim>7</dim>
                    <dim>7</dim>
                </port>
            </output>
        </layer>
        <layer name="res5c_branch2b" type="Convolution" precision="FP32" id="217">
            <convolution_data stride-x="1" stride-y="1" pad-x="1" pad-y="1" kernel-x="3" kernel-y="3" output="512" group="1"/>
            <input>
                <port id="448">
                    <dim>1</dim>
                    <dim>512</dim>
                    <dim>7</dim>
                    <dim>7</dim>
                </port>
            </input>
            <output>
                <port id="449">
                    <dim>1</dim>
                    <dim>512</dim>
                    <dim>7</dim>
                    <dim>7</dim>
                </port>
            </output>
            <weights offset="80284160" size="9437184"/>
            <biases offset="89721344" size="2048"/>
        </layer>
        <layer name="res5c_branch2b_relu" type="ReLU" precision="FP32" id="220">
            <input>
                <port id="454">
                    <dim>1</dim>
                    <dim>512</dim>
                    <dim>7</dim>
                    <dim>7</dim>
                </port>
            </input>
            <output>
                <port id="455">
                    <dim>1</dim>
                    <dim>512</dim>
                    <dim>7</dim>
                    <dim>7</dim>
                </port>
            </output>
        </layer>
        <layer name="res5c_branch2c" type="Convolution" precision="FP32" id="221">
            <convolution_data stride-x="1" stride-y="1" pad-x="0" pad-y="0" kernel-x="1" kernel-y="1" output="2048" group="1"/>
            <input>
                <port id="456">
                    <dim>1</dim>
                    <dim>512</dim>
                    <dim>7</dim>
                    <dim>7</dim>
                </port>
            </input>
            <output>
                <port id="457">
                    <dim>1</dim>
                    <dim>2048</dim>
                    <dim>7</dim>
                    <dim>7</dim>
                </port>
            </output>
            <weights offset="89723392" size="4194304"/>
            <biases offset="93917696" size="8192"/>
        </layer>
        <layer name="res5c" type="Eltwise" precision="FP32" id="224">
            <elementwise_data operation="sum"/>
            <input>
                <port id="462">
                    <dim>1</dim>
                    <dim>2048</dim>
                    <dim>7</dim>
                    <dim>7</dim>
                </port>
                <port id="463">
                    <dim>1</dim>
                    <dim>2048</dim>
                    <dim>7</dim>
                    <dim>7</dim>
                </port>
            </input>
            <output>
                <port id="464">
                    <dim>1</dim>
                    <dim>2048</dim>
                    <dim>7</dim>
                    <dim>7</dim>
                </port>
            </output>
        </layer>
        <layer name="res5c_relu" type="ReLU" precision="FP32" id="225">
            <input>
                <port id="465">
                    <dim>1</dim>
                    <dim>2048</dim>
                    <dim>7</dim>
                    <dim>7</dim>
                </port>
            </input>
            <output>
                <port id="466">
                    <dim>1</dim>
                    <dim>2048</dim>
                    <dim>7</dim>
                    <dim>7</dim>
                </port>
            </output>
        </layer>
        <layer name="pool5" type="Pooling" precision="FP32" id="226">
            <pooling_data kernel-x="7" kernel-y="7" pad-x="0" pad-y="0" stride-x="1" stride-y="1" rounding-type="ceil" pool-method="avg"/>
            <input>
                <port id="467">
                    <dim>1</dim>
                    <dim>2048</dim>
                    <dim>7</dim>
                    <dim>7</dim>
                </port>
            </input>
            <output>
                <port id="468">
                    <dim>1</dim>
                    <dim>2048</dim>
                    <dim>1</dim>
                    <dim>1</dim>
                </port>
            </output>
        </layer>
        <layer name="fc1000" type="FullyConnected" precision="FP32" id="227">
            <fc_data out-size="1000"/>
            <input>
                <port id="469">
                    <dim>1</dim>
                    <dim>2048</dim>
                    <dim>1</dim>
                    <dim>1</dim>
                </port>
            </input>
            <output>
                <port id="470">
                    <dim>1</dim>
                    <dim>1000</dim>
                </port>
            </output>
            <weights offset="93925888" size="8192000"/>
            <biases offset="102117888" size="4000"/>
        </layer>
        <layer name="prob" type="SoftMax" precision="FP32" id="228">
            <input>
                <port id="471">
                    <dim>1</dim>
                    <dim>1000</dim>
                </port>
            </input>
            <output>
                <port id="472">
                    <dim>1</dim>
                    <dim>1000</dim>
                </port>
            </output>
        </layer>
    </layers>
    <edges>
        <edge from-layer="0" from-port="0" to-layer="1" to-port="1"/>
        <edge from-layer="4" from-port="8" to-layer="5" to-port="9"/>
        <edge from-layer="5" from-port="10" to-layer="6" to-port="11"/>
        <edge from-layer="5" from-port="10" to-layer="9" to-port="17"/>
        <edge from-layer="12" from-port="24" to-layer="13" to-port="25"/>
        <edge from-layer="16" from-port="32" to-layer="17" to-port="33"/>
        <edge from-layer="20" from-port="41" to-layer="21" to-port="42"/>
        <edge from-layer="21" from-port="43" to-layer="22" to-port="44"/>
        <edge from-layer="25" from-port="51" to-layer="26" to-port="52"/>
        <edge from-layer="29" from-port="59" to-layer="30" to-port="60"/>
        <edge from-layer="21" from-port="43" to-layer="33" to-port="66"/>
        <edge from-layer="33" from-port="68" to-layer="34" to-port="69"/>
        <edge from-layer="34" from-port="70" to-layer="35" to-port="71"/>
        <edge from-layer="38" from-port="78" to-layer="39" to-port="79"/>
        <edge from-layer="42" from-port="86" to-layer="43" to-port="87"/>
        <edge from-layer="34" from-port="70" to-layer="46" to-port="93"/>
        <edge from-layer="46" from-port="95" to-layer="47" to-port="96"/>
        <edge from-layer="47" from-port="97" to-layer="48" to-port="98"/>
        <edge from-layer="47" from-port="97" to-layer="51" to-port="104"/>
        <edge from-layer="54" from-port="111" to-layer="55" to-port="112"/>
        <edge from-layer="58" from-port="119" to-layer="59" to-port="120"/>
        <edge from-layer="62" from-port="128" to-layer="63" to-port="129"/>
        <edge from-layer="63" from-port="130" to-layer="64" to-port="131"/>
        <edge from-layer="67" from-port="138" to-layer="68" to-port="139"/>
        <edge from-layer="71" from-port="146" to-layer="72" to-port="147"/>
        <edge from-layer="63" from-port="130" to-layer="75" to-port="153"/>
        <edge from-layer="75" from-port="155" to-layer="76" to-port="156"/>
        <edge from-layer="76" from-port="157" to-layer="77" to-port="158"/>
        <edge from-layer="80" from-port="165" to-layer="81" to-port="166"/>
        <edge from-layer="84" from-port="173" to-layer="85" to-port="174"/>
        <edge from-layer="76" from-port="157" to-layer="88" to-port="180"/>
        <edge from-layer="88" from-port="182" to-layer="89" to-port="183"/>
        <edge from-layer="89" from-port="184" to-layer="90" to-port="185"/>
        <edge from-layer="93" from-port="192" to-layer="94" to-port="193"/>
        <edge from-layer="97" from-port="200" to-layer="98" to-port="201"/>
        <edge from-layer="89" from-port="184" to-layer="101" to-port="207"/>
        <edge from-layer="101" from-port="209" to-layer="102" to-port="210"/>
        <edge from-layer="102" from-port="211" to-layer="103" to-port="212"/>
        <edge from-layer="102" from-port="211" to-layer="106" to-port="218"/>
        <edge from-layer="109" from-port="225" to-layer="110" to-port="226"/>
        <edge from-layer="113" from-port="233" to-layer="114" to-port="234"/>
        <edge from-layer="117" from-port="242" to-layer="118" to-port="243"/>
        <edge from-layer="118" from-port="244" to-layer="119" to-port="245"/>
        <edge from-layer="122" from-port="252" to-layer="123" to-port="253"/>
        <edge from-layer="126" from-port="260" to-layer="127" to-port="261"/>
        <edge from-layer="118" from-port="244" to-layer="130" to-port="267"/>
        <edge from-layer="130" from-port="269" to-layer="131" to-port="270"/>
        <edge from-layer="131" from-port="271" to-layer="132" to-port="272"/>
        <edge from-layer="135" from-port="279" to-layer="136" to-port="280"/>
        <edge from-layer="139" from-port="287" to-layer="140" to-port="288"/>
        <edge from-layer="131" from-port="271" to-layer="143" to-port="294"/>
        <edge from-layer="143" from-port="296" to-layer="144" to-port="297"/>
        <edge from-layer="144" from-port="298" to-layer="145" to-port="299"/>
        <edge from-layer="148" from-port="306" to-layer="149" to-port="307"/>
        <edge from-layer="152" from-port="314" to-layer="153" to-port="315"/>
        <edge from-layer="144" from-port="298" to-layer="156" to-port="321"/>
        <edge from-layer="156" from-port="323" to-layer="157" to-port="324"/>
        <edge from-layer="157" from-port="325" to-layer="158" to-port="326"/>
        <edge from-layer="161" from-port="333" to-layer="162" to-port="334"/>
        <edge from-layer="165" from-port="341" to-layer="166" to-port="342"/>
        <edge from-layer="157" from-port="325" to-layer="169" to-port="348"/>
        <edge from-layer="169" from-port="350" to-layer="170" to-port="351"/>
        <edge from-layer="170" from-port="352" to-layer="171" to-port="353"/>
        <edge from-layer="174" from-port="360" to-layer="175" to-port="361"/>
        <edge from-layer="178" from-port="368" to-layer="179" to-port="369"/>
        <edge from-layer="170" from-port="352" to-layer="182" to-port="375"/>
        <edge from-layer="182" from-port="377" to-layer="183" to-port="378"/>
        <edge from-layer="183" from-port="379" to-layer="184" to-port="380"/>
        <edge from-layer="183" from-port="379" to-layer="187" to-port="386"/>
        <edge from-layer="190" from-port="393" to-layer="191" to-port="394"/>
        <edge from-layer="194" from-port="401" to-layer="195" to-port="402"/>
        <edge from-layer="198" from-port="410" to-layer="199" to-port="411"/>
        <edge from-layer="199" from-port="412" to-layer="200" to-port="413"/>
        <edge from-layer="203" from-port="420" to-layer="204" to-port="421"/>
        <edge from-layer="207" from-port="428" to-layer="208" to-port="429"/>
        <edge from-layer="199" from-port="412" to-layer="211" to-port="435"/>
        <edge from-layer="211" from-port="437" to-layer="212" to-port="438"/>
        <edge from-layer="212" from-port="439" to-layer="213" to-port="440"/>
        <edge from-layer="216" from-port="447" to-layer="217" to-port="448"/>
        <edge from-layer="220" from-port="455" to-layer="221" to-port="456"/>
        <edge from-layer="212" from-port="439" to-layer="224" to-port="462"/>
        <edge from-layer="224" from-port="464" to-layer="225" to-port="465"/>
        <edge from-layer="225" from-port="466" to-layer="226" to-port="467"/>
        <edge from-layer="226" from-port="468" to-layer="227" to-port="469"/>
        <edge from-layer="227" from-port="470" to-layer="228" to-port="471"/>
        <edge from-layer="1" from-port="2" to-layer="4" to-port="7"/>
        <edge from-layer="6" from-port="12" to-layer="20" to-port="39"/>
        <edge from-layer="9" from-port="18" to-layer="12" to-port="23"/>
        <edge from-layer="13" from-port="26" to-layer="16" to-port="31"/>
        <edge from-layer="17" from-port="34" to-layer="20" to-port="40"/>
        <edge from-layer="22" from-port="45" to-layer="25" to-port="50"/>
        <edge from-layer="26" from-port="53" to-layer="29" to-port="58"/>
        <edge from-layer="30" from-port="61" to-layer="33" to-port="67"/>
        <edge from-layer="35" from-port="72" to-layer="38" to-port="77"/>
        <edge from-layer="39" from-port="80" to-layer="42" to-port="85"/>
        <edge from-layer="43" from-port="88" to-layer="46" to-port="94"/>
        <edge from-layer="48" from-port="99" to-layer="62" to-port="126"/>
        <edge from-layer="51" from-port="105" to-layer="54" to-port="110"/>
        <edge from-layer="55" from-port="113" to-layer="58" to-port="118"/>
        <edge from-layer="59" from-port="121" to-layer="62" to-port="127"/>
        <edge from-layer="64" from-port="132" to-layer="67" to-port="137"/>
        <edge from-layer="68" from-port="140" to-layer="71" to-port="145"/>
        <edge from-layer="72" from-port="148" to-layer="75" to-port="154"/>
        <edge from-layer="77" from-port="159" to-layer="80" to-port="164"/>
        <edge from-layer="81" from-port="167" to-layer="84" to-port="172"/>
        <edge from-layer="85" from-port="175" to-layer="88" to-port="181"/>
        <edge from-layer="90" from-port="186" to-layer="93" to-port="191"/>
        <edge from-layer="94" from-port="194" to-layer="97" to-port="199"/>
        <edge from-layer="98" from-port="202" to-layer="101" to-port="208"/>
        <edge from-layer="103" from-port="213" to-layer="117" to-port="240"/>
        <edge from-layer="106" from-port="219" to-layer="109" to-port="224"/>
        <edge from-layer="110" from-port="227" to-layer="113" to-port="232"/>
        <edge from-layer="114" from-port="235" to-layer="117" to-port="241"/>
        <edge from-layer="119" from-port="246" to-layer="122" to-port="251"/>
        <edge from-layer="123" from-port="254" to-layer="126" to-port="259"/>
        <edge from-layer="127" from-port="262" to-layer="130" to-port="268"/>
        <edge from-layer="132" from-port="273" to-layer="135" to-port="278"/>
        <edge from-layer="136" from-port="281" to-layer="139" to-port="286"/>
        <edge from-layer="140" from-port="289" to-layer="143" to-port="295"/>
        <edge from-layer="145" from-port="300" to-layer="148" to-port="305"/>
        <edge from-layer="149" from-port="308" to-layer="152" to-port="313"/>
        <edge from-layer="153" from-port="316" to-layer="156" to-port="322"/>
        <edge from-layer="158" from-port="327" to-layer="161" to-port="332"/>
        <edge from-layer="162" from-port="335" to-layer="165" to-port="340"/>
        <edge from-layer="166" from-port="343" to-layer="169" to-port="349"/>
        <edge from-layer="171" from-port="354" to-layer="174" to-port="359"/>
        <edge from-layer="175" from-port="362" to-layer="178" to-port="367"/>
        <edge from-layer="179" from-port="370" to-layer="182" to-port="376"/>
        <edge from-layer="184" from-port="381" to-layer="198" to-port="408"/>
        <edge from-layer="187" from-port="387" to-layer="190" to-port="392"/>
        <edge from-layer="191" from-port="395" to-layer="194" to-port="400"/>
        <edge from-layer="195" from-port="403" to-layer="198" to-port="409"/>
        <edge from-layer="200" from-port="414" to-layer="203" to-port="419"/>
        <edge from-layer="204" from-port="422" to-layer="207" to-port="427"/>
        <edge from-layer="208" from-port="430" to-layer="211" to-port="436"/>
        <edge from-layer="213" from-port="441" to-layer="216" to-port="446"/>
        <edge from-layer="217" from-port="449" to-layer="220" to-port="454"/>
        <edge from-layer="221" from-port="457" to-layer="224" to-port="463"/>
    </edges>
    <pre-process reference-layer-name="input">
        <channel id="0">
            <mean value="104.00698793"/>
        </channel>
        <channel id="1">
            <mean value="116.66876762"/>
        </channel>
        <channel id="2">
            <mean value="122.67891434"/>
        </channel>
    </pre-process>
</net>
